network2epochsfinal.pt (torch, 988737 bytes, 12 tensors)

hidden_1.0.weight f4 [512, 266]
0.021234263 -0.21696253 0.24652794 -0.097875565 -0.22246218 0.113989286 -0.05870596 -0.26093537
0.08705992 0.048135873 0.21859422 -0.074013874 0.2391162 -0.09404753 -0.19909066 0.03821193
-0.020240149 0.09775934 -0.0721599 -0.06486346 -0.07478242 -0.06278676 -0.13990088 0.05808822
0.104212366 0.049679946 -0.029532561 -0.06417184 0.18779287 0.047574196 0.19018055 -0.13495614
0.07067246 0.2439052 -0.066985376 -0.0803233 0.11268236 0.080288105 0.11154976 -0.09149443
-0.035121232 -0.20403136 -0.13196321 -0.15556476 0.105468586 -0.09365207 -0.027374169 0.27021638
0.16113822 -0.06460166 -0.040333893 -0.12798154 0.07728583 0.14430124 -0.29635692 0.06873496
0.09791317 -0.037115015 0.011315935 0.04102368 0.094466425 0.16422169 -0.021257771 -0.039079618
0.00091386435 -0.087022565 -0.26161987 -0.08468851 0.092543535 0.11974348 -0.2398214 0.019804815
-0.028124925 -0.19520995 0.026356386 -0.18318287 -0.05793004 -0.21224734 -0.07280383 -0.19503768
-0.0055920635 -0.05144184 -0.049348652 -0.13463081 0.16129006 -0.042749085 -0.00016174167 -0.14555147
-0.09873096 0.095808856 -0.29697388 -0.041176092 -0.12155899 -0.1988019 -0.16063423 0.078900896
-0.22997886 0.042935394 -0.28818354 -0.24625508 -0.123860344 -0.16625986 -0.016008245 0.17200093
-0.1713719 -0.25073054 0.0510107 0.0663654 -0.018988565 -0.114332564 -0.19820404 -0.06818482
0.041713305 0.0693708 0.19251919 -0.1712983 -0.093338646 0.04740031 -0.004619634 0.15167214
-0.18007982 0.03121691 -0.060411856 -0.23768902 0.06720568 0.19932981 0.014433531 0.07685195
-0.1190115 0.1466812 -0.07712859 -0.14038579 -0.15744594 -0.02675994 -0.12827423 -0.029271001
-0.15061852 -0.05679426 0.015916033 0.20642221 0.039215714 -0.001857266 -0.14100207 -0.34455013
0.20220034 0.014365502 -0.037071265 -0.09787866 0.102596305 0.19008528 -0.006764469 0.06981108
-0.055849273 -0.22062522 -0.014315941 0.062786564 0.033297446 -0.21882428 -0.009019988 0.062440626
-0.2958915 -0.2649086 0.14838469 -0.07455499 0.21001789 -0.045666087 0.14458205 -0.3551833
0.12422972 -0.030948615 -0.1623269 -0.2557861 0.13909853 0.085846975 0.0518498 -0.115495615
-0.076087 -0.10312842 0.16847505 -0.15919489 -0.009751793 0.366494 0.1317562 -0.009676211
-0.0017154153 0.062445883 -0.009309665 -0.40401796 0.20896438 -0.25161803 0.0050118044 0.10046292
-0.134581 -0.14585355 -0.1207915 -0.19357128 -0.3114876 -0.25431708 -0.13768364 -0.016865605
-0.28109187 -0.28182265 -0.08410727 -0.078959994 0.09681584 0.345124 0.28851184 -0.02854561
0.083799616 -0.050635178 0.18418807 0.12413164 -0.05379332 0.10224585 -0.11334826 0.10322007
0.28801692 -0.19372371 0.11264849 0.13277987 0.05433451 -0.2974795 -0.16701911 0.18392336
0.08793109 0.17726274 0.019220317 0.2108247 -0.16572173 -0.29018632 0.1631105 -0.28772843
-0.009436068 -0.1482493 -0.08680932 -0.09411113 0.04318705 -0.197465 -0.090215184 0.33304977
0.17910692 -0.00919092 0.2900671 0.10993022 -0.14248712 0.08153065 -0.18541458 -0.082995266
-0.19885096 -0.17417055 -0.20630035 -0.17753226 -0.26911217 0.0048308657 -0.11266878 0.16299003
00000000: 7af3 ad3c 6d2b 5ebe d271 7c3e fc72 c8bd
00000010: 20cd 63be 3773 e93d a975 70bd 5299 85be
00000020: 794c b23d 1f2a 453d 2ad7 5f3e 9694 97bd
00000030: e1da 743e fe9b c0bd 6cde 4bbe 1d84 1c3d
00000040: abce a5bc 0d36 c83d 92c8 93bd 22d7 84bd
00000050: 8727 99bd 5896 80bd 2d42 0fbe eaed 6d3d
00000060: 4b6d d53d 337d 4b3d 45ee f1bc 876c 83bd
00000070: c64c 403e 29dd 423d b1be 423e f131 0abe
00000080: b9bc 903d 49c2 793e a12f 89bd 8b80 a4bd
00000090: 02c6 e63d 176e a43d 3374 e43d 6f61 bbbd
000000a0: 48db 0fbd 99ed 50be 5d21 07be 5e4c 1fbe
000000b0: eaff d73d a8cc bfbd cb3f e0bc cd59 8a3e
000000c0: 6b01 253e e04d 84bd 2735 25bd 980d 03be
000000d0: 0948 9e3d b4c3 133e 18bc 97be eac4 8c3d
000000e0: b386 c83d ea05 18bd 7966 393c 7208 283d
000000f0: 9d77 c13d bb29 283e c724 aebc f311 20bd
00000100: 6690 6f3a e338 b2bd 0af3 85be 2b71 adbd
00000110: 7787 bd3d 123c f53d be93 75be b53d a23c
00000120: 3e66 e6bc 1ee5 47be 59e9 d73c 4a94 3bbe
00000130: 0d48 6dbd 5e57 59be 2d1a 95bd f5b7 47be
00000140: a13d b7bb aeb4 52bd d021 4abd a9dc 09be
00000150: 3929 253e aa19 2fbd 3399 29b9 720b 15be
00000160: 7533 cabd 6f37 c43d f60c 98be 43a8 28bd
00000170: ebf3 f8bd ba92 4bbe 4d7d 24be cb96 a13d
00000180: 947f 6bbe 06dd 2f3d cb8c 93be 4b2a 7cbe
00000190: 7eaa fdbd 0640 2abe b923 83bc 0321 303e
000001a0: 1e7c 2fbe c15f 80be 99f0 503d 95ea 873d
000001b0: e88d 9bbc 3127 eabd 00f6 4abe 7ca4 8bbd
000001c0: 92db 2a3d 4712 8e3d c023 453e d268 2fbe
000001d0: 5528 bfbd d426 423d 4c60 97bb f14f 1b3e
000001e0: d866 38be 9bba ff3c 6c72 77bd c064 73be
000001f0: 22a3 893d 1d1d 4c3e 9e7a 6c3c 8e64 9d3d
00000200: 4dbc f3bd 9933 163e 98f5 9dbd 4bc1 0fbe
00000210: 8239 21be a937 dbbc 525a 03be bdc9 efbc
00000220: be3b 1abe 19a1 68bd 5762 823c 5860 533e
00000230: a8a0 203d 816f f3ba d962 10be e068 b0be
00000240: 9b0d 4f3e 485d 6b3c 0ad8 17bd 9b74 c8bd
00000250: 031e d23d b7a5 423e 7ba8 ddbb 1df9 8e3d
00000260: 35c2 64bd 94eb 61be 698d 6abc 3e96 803d
00000270: e762 083d 7913 60be 92c8 13bc bec1 7f3d
00000280: 177f 97be 1aa2 87be 28f2 173e 49b0 98bd
00000290: ee0e 573e 5d0c 3bbd 510d 143e 96da b5be
000002a0: 276c fe3d f387 fdbc 0639 26be 65f6 82be
000002b0: d86f 0e3e 8ad0 af3d 7560 543d f788 ecbd
000002c0: 80d3 9bbd fe34 d3bd b984 2c3e fc03 23be
000002d0: fcc5 1fbc 1aa5 bb3e 19eb 063e f888 1ebc
000002e0: c9d7 e0ba 41c7 7f3d 9187 18bc 71db cebe
000002f0: c2fa 553e 14d4 80be 103a a43b 81bf cd3d
00000300: 9acf 09be a25a 15be 8961 f7bd 8d37 46be
00000310: 4d7b 9fbe d935 82be f1fc 0cbe bd29 8abc
00000320: 46eb 8fbe 0f4b 90be 6f40 acbd c7b5 a1bd
00000330: 6247 c63d 18b4 b03e d3b7 933e 7cd8 e9bc
00000340: 229f ab3d d566 4fbd cc9b 3c3e bb38 fe3d
00000350: 6256 5cbd 4666 d13d 2223 e8bd 0b65 d33d
00000360: f476 933e 825f 46be 40b4 e63d 72f7 073e
00000370: dd8d 5e3d 3c4f 98be 0f07 2bbe 6856 3c3e
00000380: 3715 b43d 5d84 353e ed73 9d3c 6ee2 573e
00000390: f5b2 29be 4d93 94be 7006 273e 2451 93be
000003a0: bd99 1abc aace 17be 16c9 b1bd 56bd c0bd
000003b0: e7e4 303d 4434 4abe bdc2 b8bd 8085 aa3e
000003c0: ce67 373e 8395 16bc ad83 943e 1823 e13d
000003d0: 25e8 11be 8bf9 a63d 52dd 3dbe 6cf9 a9bd
000003e0: 969f 4bbe c459 32be 6640 53be 04cb 35be
000003f0: 12c9 89be 3d4c 9e3b e4be e6bd dce6 263e

hidden_1.0.bias f4 [512]
0.035758566 0.026812235 0.014505368 0.056501478 0.15986355 -0.08618051 -0.09011228 0.090262555
0.11273343 0.06610641 -0.14328843 0.021226207 -0.0068693487 0.084912285 0.009428253 -0.037033208
0.02706614 -0.0728536 0.090682656 -0.04839513 -0.026786542 -0.045219142 -0.058192767 -0.015202034
-0.057751678 0.07327566 0.100696124 -0.03223146 0.036523256 0.024749309 -0.073302396 0.031127863
0.024846524 -0.094679736 -0.018562665 0.049763344 -0.007338526 -0.080167346 -0.03168662 0.027693432
-0.079179704 -0.05684332 0.11807823 0.0071282205 0.08308992 0.06469447 0.14734307 0.0061222534
-0.05530417 0.009058072 0.10737565 -0.038303755 0.06739791 0.00018329134 -0.08966713 0.056152858
-0.08381744 -0.05425636 -0.028913036 0.05669323 0.0732441 -0.047400247 0.027117817 -0.107508294
0.016809054 -0.0841514 -0.03460962 0.052852377 0.14965676 0.08295268 0.12898971 0.06498483
-0.08015771 -0.11748396 0.1367971 -0.06786737 -0.08578481 0.12973785 0.037809137 -0.0013828431
-0.033127308 -0.0013595374 0.027184568 -0.0709584 -0.026341086 -0.065884046 0.02606657 0.070705265
0.051887758 -0.10276237 0.011859188 -0.05581589 -0.03134604 0.08740947 -0.026640583 0.00027985714
0.09096912 -0.13389096 0.037418485 -0.08162564 -0.19445767 0.012265906 0.08738703 0.11704811
0.04113436 0.013047061 -0.011939839 -0.08250475 0.04962216 -0.0932062 0.13206708 0.1157679
0.11283807 -0.07364455 0.055124804 0.15277974 0.12141309 -0.06599562 -0.034550857 -0.025137652
0.043898266 0.023511421 0.09242619 0.056782324 -0.087457865 -0.11366183 -0.016735626 0.019198932
0.03762363 0.10602379 -0.000755589 -0.03906946 -0.07564336 0.111446805 -0.02841616 -0.081468605
-0.06368059 0.10658442 -0.018271556 0.053880073 -0.051583365 -0.048499066 -0.007514374 0.062588215
-0.0002929173 -0.10635418 0.07477721 0.057236947 0.0341015 -0.098046966 -0.10325955 -0.06255974
0.08550052 -0.040540747 0.11370875 -0.15075044 0.114752725 0.07449241 0.062898494 -0.036598433
0.14929287 -0.055386826 0.1761413 0.12835898 -0.02229913 -0.113293774 -0.02563689 0.043285735
0.067048304 -0.007292145 0.025129924 0.08152248 -0.05194512 0.035189465 0.10653679 0.020389002
0.0143990265 0.021486772 -0.015392483 0.0754291 -0.013681677 0.08969495 0.10532595 0.04575218
0.022673624 0.038737033 -0.00095820957 -0.066067845 -0.066892155 0.08490242 -0.07131754 0.055063643
-0.06826106 -0.0720919 0.018748643 0.031550188 -0.040610105 0.03408093 0.06642374 -0.0008017459
-0.022782259 -0.05349348 -0.09930553 0.09233321 -0.012651672 0.03967843 -0.055458225 -0.023623522
0.01336783 0.081689194 -0.11561509 0.017237818 -0.0011603261 0.085882604 0.19233918 -0.02694943
0.07611725 -0.002281022 0.088957146 0.07907806 0.0136499265 -0.049040142 0.02427265 -0.007672091
-0.07427558 -0.100191556 0.058515724 0.0030189885 0.008706829 -0.1308793 0.15320133 0.00073299755
0.11255032 -0.031918027 0.17583625 -0.14438458 -0.050282616 0.024735795 0.013705183 0.019958144
-0.03808926 -0.08363433 0.01994439 0.09017616 0.16095635 0.17475651 0.04255277 -0.03923305
0.013637335 -0.05539948 0.009510395 0.018058589 -0.013320254 0.033290926 0.008029537 -0.0022853613
00000000: 9377 123d 55a5 db3c eca7 6d3c 186e 673d
00000010: 45b3 233e 687f b0bd c98c b8bd 93db b83d
00000020: c9e0 e63d cc62 873d 34ba 12be 95e2 ad3c
00000030: 4618 e1bb 7ee6 ad3d f678 1a3c 22b0 17bd
00000040: cfb9 dd3c 4534 95bd d4b7 b93d f939 46bd
00000050: 736f dbbc b537 39bd 8a5b 6ebd f411 79bc
00000060: 068d 6cbd 8d11 963d c539 ce3d 2305 04bd
00000070: 6999 153d 10bf ca3c 911f 96bd dcff fe3c
00000080: f08a cb3c 73e7 c1bd bb10 98bc a6d4 4b3d
00000090: 0578 f0bb c72e a4bd d4c9 01bd 56dd e23c
000000a0: f828 a2bd 8bd4 68bd 00d3 f13d d993 e93b
000000b0: 0c2b aa3d 897e 843d 1ae1 163e 2f9d c83b
000000c0: a086 62bd 4f68 143c c4e7 db3d 66e4 1cbd
000000d0: ea07 8a3d e531 4039 66a3 b7bd 8a00 663d
000000e0: 7aa8 abbd eb3b 5ebd 08db ecbc 2937 683d
000000f0: 0101 963d c326 42bd 2f26 de3c 4f2d dcbd
00000100: 24b3 893c 9257 acbd d1c2 0dbd bc7b 583d
00000110: 9f3f 193e 18e3 a93d e115 043e c416 853d
00000120: ba29 a4bd 6e9b f0bd 8a14 0c3e 0cfe 8abd
00000130: f2af afbd 00da 043e c1dd 1a3d 8440 b5ba
00000140: 80b0 07bd 8132 b2ba 2cb2 de3c a352 91bd
00000150: 43c9 d7bc 37ee 86bd 8f89 d53c eccd 903d
00000160: 4288 543d 1475 d2bd 0a4d 423c 349f 64bd
00000170: b564 00bd bc03 b33d 5a3d dabc cab9 9239
00000180: 054e ba3d b61a 09be 2044 193d 582b a7bd
00000190: e91f 47be f0f6 483c f9f7 b23d ebb6 ef3d
000001a0: 817c 283d 57c3 553c 519f 43bc 40f8 a8bd
000001b0: 9b40 4b3d e4e2 bebd 983c 073e b917 ed3d
000001c0: a517 e73d f4d2 96bd 8cca 613d 4b72 1c3e
000001d0: 6da7 f83d b628 87bd 3385 0dbd 7aed cdbc
000001e0: abce 333d 069b c03c f149 bd3d 9594 683d
000001f0: 1c1d b3bd 89c7 e8bd 2719 89bc 1447 9d3c
00000200: 3c1b 1a3d 0023 d93d b812 46ba 4c07 20bd
00000210: e8ea 9abd 393e e43d 02c9 e8bc 03d9 a6bd
00000220: f86a 82bd ef48 da3d 3bae 95bc 5ab1 5c3d
00000230: 1449 53bd f5a6 46bd 233b f6bb 402e 803d
00000240: b292 99b9 38d0 d9bd cb24 993d 4a71 6a3d
00000250: 04ae 0b3d d9cc c8bd be79 d3bd 521f 80bd
00000260: e61a af3d 0e0e 26bd 22e0 e83d 535e 1abe
00000270: 7a03 eb3d 7a8f 983d edd0 803d 3de8 15bd
00000280: 3be0 183e 4cdd 62bd 635e 343e 8970 033e
00000290: aaac b6bc 9106 e8bd 7504 d2bc 624c 313d
000002a0: 9f50 893d f2f2 eebb 45dd cd3c 42f5 a63d
000002b0: 68c4 54bd d422 103d f62f da3d d606 a73c
000002c0: e5e9 6b3c 0705 b03c c130 7cbc 927a 9a3d
000002d0: 1d29 60bc fcb1 b73d 22b5 d73d a366 3b3d
000002e0: 09be b93c b9aa 1e3d 5b30 7bba 944e 87bd
000002f0: c1fe 88bd 52e1 ad3d ee0e 92bd 6a8a 613d
00000300: 74cc 8bbd eba4 93bd c196 993c c53a 013d
00000310: c856 26bd 7298 0b3d 2b09 883d 422c 52ba
00000320: dca1 babc fb1b 5bbd b360 cbbd 3219 bd3d
00000330: f548 4fbc d985 223d 2a28 63bd 1e86 c1bc
00000340: be04 5b3c aa4c a73d 9bc7 ecbd 5336 8d3c
00000350: 1516 98ba 38e3 af3d 90f4 443e 0dc5 dcbc
00000360: 5ce3 9b3d 337d 15bb 2a2f b63d aef3 a13d
00000370: f1a3 5f3c 51de 48bd 70d7 c63c 2a66 fbbb
00000380: cc1d 98bd 3b31 cdbd 2fae 6f3d 39da 453b
00000390: 16a7 0e3c 3905 06be cfe0 1c3e a226 403a
000003a0: c880 e63d 7abc 02bd 6b0e 343e 8dd9 13be
000003b0: 25f5 4dbd b9a2 ca3c b48b 603c 437f a33c
000003c0: 7c03 1cbd 7a48 abbd 6b62 a33c 47ae b83d
000003d0: bed1 243e 5ff3 323e d04b 2e3d d6b2 20bd
000003e0: 216f 5f3c 91ea 62bd 7dd1 1b3c 9bef 933c
000003f0: 323d 5abc 115c 083d 528e 033c 00c6 15bb

hidden_2.0.weight f4 [128, 512]
-0.15315953 0.00020731708 -0.023262028 -0.13981007 0.08137349 -0.06265289 0.010068019 -0.0728691
-0.07128071 0.041749742 0.009723661 0.1122442 -0.0021710813 0.033999417 -0.00631101 0.040178467
0.022504753 0.039876215 0.044333722 -0.032343112 -0.08212001 0.11282076 0.10458831 -0.051462196
-0.0020855223 0.04617155 0.18190888 0.026137305 0.0014109124 -0.085849196 0.026713338 -0.031218374
0.15747502 -0.10650171 0.10346722 -0.09185476 0.09439332 -0.06628594 -0.050566856 -0.044546563
-0.053944528 0.0024618658 -0.028652152 0.05912912 -0.008479505 0.0059877574 -0.005847067 0.09876771
0.07192747 0.028484022 0.1477983 0.020081237 0.002774774 0.12931782 -0.059997287 0.08589771
0.04110464 0.011519943 0.043029316 0.031002421 -0.11627732 0.03822299 -0.08918321 0.06921912
0.07036191 -0.087406576 0.022230968 0.006184152 -0.10150944 -0.0028567538 0.009260005 0.14068961
-0.07772136 -0.10053597 -0.043255534 0.053296436 -0.007940255 0.039879013 -0.13490884 -0.048026245
0.0868667 -0.0006730178 -0.018831216 -0.010495739 -0.02612455 0.020756325 0.08104929 -0.0033462797
-0.035892174 0.02840831 0.028078303 -0.042880632 -0.0658382 0.04726799 -0.0073091215 -0.015556444
0.025878338 -0.11730582 -0.04741359 -0.056954663 -0.008640613 0.08864454 0.0493581 -0.009635539
-0.007895531 -0.026228674 -0.020868983 -0.05421542 -0.04444772 -0.06088497 0.0151546765 0.09193664
0.02184175 -0.028996903 -0.0462005 0.041205578 0.07880494 0.050246872 -0.0069486224 0.1774022
0.20465927 -0.015665855 0.18145734 0.01935787 -0.061105702 -0.0856363 -0.032688335 -0.017295282
-0.10593373 0.026123952 0.031063622 -0.055037655 -0.1543271 0.03936464 0.02010616 -0.05270604
0.045051232 0.013221838 -0.25258777 0.0017113709 0.008180875 0.11298145 0.055523254 0.061049424
0.024816569 -0.011159883 0.035198197 -0.011107561 -0.013212046 0.007898778 -0.04276073 -0.15946114
0.12990654 0.12321627 0.0044006524 0.0127358185 0.14814846 -0.036953535 0.07387526 -0.034450736
0.048997443 0.12178681 0.066109546 0.13778639 -0.027023306 0.04333885 0.07693106 -0.054349765
-0.09136861 -0.13905086 0.039331853 0.0016825484 -0.09742252 -0.07367402 -0.008422265 0.05505631
0.048738528 -0.033465404 0.044713702 0.018850397 -0.06189918 -0.21695903 0.06370127 -0.036096092
-0.026055116 0.013929518 -0.08990079 0.03508012 0.08690134 -0.06722417 -0.058965757 0.0839277
-0.014572723 -0.052819476 -0.098281845 0.025913104 0.02964516 -0.06469562 0.018496795 -0.07432532
-0.029304046 -0.05193032 -0.039344057 -0.02630646 0.10226927 0.06068316 -0.07769622 -0.14026989
0.017746517 -0.01623525 -0.17524764 0.09797426 0.008829359 0.017903108 0.15034963 -0.030363884
-0.06503016 0.08642902 -0.09888248 -0.020501267 0.09165857 -0.08529378 -0.047822773 0.09932795
-0.06034227 -0.16025169 -0.009327922 -0.024852008 -0.024640704 -0.1967784 0.027240075 -0.06804957
-0.09035617 -0.0436449 0.064657174 -0.013190026 0.06400279 0.06898861 0.062081903 0.05239269
-0.0033493137 0.011157617 -0.01906737 0.10037746 0.06402902 0.01957188 -0.031667057 0.109991394
0.085876845 0.023493499 0.09160273 0.11575288 0.049881104 0.093517974 0.07443105 -0.010227101
00000000: dad5 1cbe 4163 5939 0290 bebc 5f2a 0fbe
00000010: 25a7 a63d 2950 80bd 55f4 243c 653c 95bd
00000020: 9ffb 91bd c701 2b3d fd4f 1f3c 4ae0 e53d
00000030: b348 0ebb f942 0b3d 97cc cebb 2d92 243d
00000040: e35b b83c 3e55 233d 4797 353d 367a 04bd
00000050: 892e a8bd 920e e73d 6532 d63d 06ca 52bd
00000060: 42ad 08bb 611e 3d3d 5246 3a3e e71d d63c
00000070: 5dee b83a b4d1 afbd eed5 da3c adbd ffbc
00000080: 2241 213e 921d dabd 9fe6 d33d 591e bcbd
00000090: 4951 c13d ecc0 87bd 311f 4fbd 7576 36bd
000000a0: f0f4 5cbd 4157 213b ebb7 eabc 6031 723d
000000b0: 9fed 0abc f334 c43b c198 bfbb ba46 ca3d
000000c0: b64e 933d 5357 e93c 7058 173e 6881 a43c
000000d0: fcd8 353b e46b 043e b7bf 75bd 23eb af3d
000000e0: 575d 283d 25be 3c3c 823f 303d caf8 fd3c
000000f0: ce22 eebd b68f 1c3d b0a5 b6bd c1c2 8d3d
00000100: e819 903d 3802 b3bd b81d b63c 6da4 ca3b
00000110: 2ee4 cfbd 6038 3bbb 47b7 173c f010 103e
00000120: 602c 9fbd cde5 cdbd b72c 31bd 5d4d 5a3d
00000130: d817 02bc 2d58 233d 8b25 0abe 2bb7 44bd
00000140: 2be7 b13d 766d 30ba ec43 9abc 52f6 2bbc
00000150: 2703 d6bc 2b09 aa3c 2cfd a53d 424d 5bbb
00000160: ac03 13bd 8bb8 e83c 7804 e63c 9aa3 2fbd
00000170: 2ed6 86bd 149c 413d 5b81 efbb 75e0 7ebc
00000180: cffe d33c 093e f0bd c134 42bd 4b49 69bd
00000190: 5c91 0dbc 458b b53d b82b 4a3d 61de 1dbc
000001a0: 425c 01bc 84dd d6bc 6ef5 aabc fd10 5ebd
000001b0: d00e 36bd 8562 79bd 524b 783c 4749 bc3d
000001c0: 78ed b23c ea8a edbc bc3c 3dbd 2ec7 283d
000001d0: 7c64 a13d aacf 4d3d 45b1 e3bb eca8 353e
000001e0: 3392 513e ae55 80bc f4cf 393e 6594 9e3c
000001f0: f949 7abd 1662 afbd 34e4 05bd d6ae 8dbc
00000200: c9f3 d8bd e601 d63c 2379 fe3c 2a6f 61bd
00000210: ec07 1ebe d13c 213d acb5 a43c 4ae2 57bd
00000220: a487 383d 68a0 583c 2f53 81be 1450 e03a
00000230: 1409 063c d262 e73d 5a6c 633d f60e 7a3d
00000240: 1e4c cb3c f1d7 36bc fc2b 103d 7dfc 35bc
00000250: 5677 58bc e069 013c e025 2fbd c849 23be
00000260: 3806 053e d058 fc3d 5933 903b e5a9 503c
00000270: 3bb4 173e 975c 17bd ea4b 973d 371c 0dbd
00000280: 8bb1 483d 5d6b f93d 7164 873d e017 0d3e
00000290: fb5f ddbc 1484 313d 088e 9d3d dc9d 5ebd
000002a0: 771f bbbd 5963 0ebe 701a 213d f588 dc3a
000002b0: 7585 c7bd 68e2 96bd 8afd 09bc ba82 613d
000002c0: 0da2 473d 0513 09bd b725 373d 266c 9a3c
000002d0: ff89 7dbd 822a 5ebe d075 823d 7fd9 13bd
000002e0: 8a71 d5bc a238 643c e81d b8bd 2cb0 0f3d
000002f0: 54f9 b13d d3ac 89bd 1486 71bd 49e2 ab3d
00000300: 6ec2 6ebc 3c59 58bd fe47 c9bd b847 d43c
00000310: 68da f23c 237f 84bd 9786 973c e037 98bd
00000320: 0a0f f0bc e3b4 54bd 3c27 21bd a580 d7bc
00000330: 8d72 d13d e88e 783d 321f 9fbd e9a2 0fbe
00000340: 2561 913c c9ff 84bc 1e74 33be bba6 c83d
00000350: 04a9 103c 8aa9 923c 41f5 193e aebd f8bc
00000360: 882e 85bd b301 b13d e682 cabd 46f2 a7bc
00000370: 7db7 bb3d 81ae aebd d0e1 43bd 746c cb3d
00000380: 7529 77bd 0519 24be 24d4 18bc 7096 cbbc
00000390: 4ddb c9bc 4780 49be 9426 df3c 935d 8bbd
000003a0: a80c b9bd ffc4 32bd fb6a 843d fb1a 58bc
000003b0: e513 833d e649 8d3d 9849 7e3d b899 563d
000003c0: 2980 5bbb 70ce 363c 2c33 9cbc b392 cd3d
000003d0: a621 833d 3555 a03c 51b5 01bd 2b43 e13d
000003e0: 33e0 af3d 7075 c03c 369a bb3d d90f ed3d
000003f0: 2150 4c3d 5a86 bf3d 4e6f 983d 928f 27bc

hidden_2.0.bias f4 [128]
0.01686625 0.074056655 0.040870808 0.022501046 -0.08283908 -0.19753002 -0.083133996 -0.14152884
-0.02656118 -0.18984678 0.16477461 -0.18622085 -0.09546904 0.11241996 0.04243673 0.081216484
-0.0685407 -0.022650043 -0.08544577 0.32355678 -0.11716856 -0.04503195 -0.17401144 -0.19773494
-0.22400762 0.092636116 0.077696435 0.17087936 -0.021916503 -0.01196733 -0.26116607 0.105568156
0.21766707 -0.117346965 0.056193337 0.006539105 0.09490146 -0.17588013 -0.17552826 0.11926584
-0.099442326 0.06204437 -0.1064555 0.06839676 -0.075019374 -0.024182554 -0.19308756 0.31609666
0.0046983566 -0.035540443 0.057665534 0.018665325 0.27326062 -0.051230073 0.26604074 -0.13292886
-0.22347514 0.14816804 0.2144489 0.08508989 -0.005711467 -0.17319275 0.031171912 0.0049805874
-0.2636924 -0.20861806 0.153983 0.037146382 -0.07203129 0.26442948 -0.0697471 -0.10305113
-0.16005893 -0.19518274 -0.34342265 -0.0064743105 -0.1415982 0.06331127 -0.09456327 0.050279684
-0.09666618 -0.15127124 0.1189888 0.10729847 0.19130512 -0.18831408 -0.22951217 -0.0025538236
-0.30706748 -0.057728887 0.0915064 -0.15843236 0.093145445 -0.1855628 -0.126836 -0.16949303
0.03550953 0.07339118 -0.09557713 0.0017676259 0.09315913 -0.02698554 0.13780004 0.048090428
-0.061408393 -0.25119174 -0.18974662 -0.2816214 -0.09329741 0.29975694 -0.122028776 0.19471437
-0.1168948 -0.093071 -0.07301443 -0.19506286 0.08973246 0.29057512 0.4051233 -0.08816365
0.19863547 0.10917753 0.21929698 0.115361266 -0.16055034 0.05646719 -0.034147434 0.050710317
00000000: 172b 8a3c 04ab 973d 2668 273d 1d54 b83c
00000010: 89a7 a9bd 4f45 4abe 2842 aabd f0ec 10be
00000020: d596 d9bc 3267 42be adba 283e aeb0 3ebe
00000030: 4685 c3bd 703c e63d 23d2 2d3d d454 a63d
00000040: 115f 8cbd 958c b9bc 31fe aebd 3ca9 a53e
00000050: 12f6 efbd 6c73 38bd 0e30 32be 077b 4abe
00000060: 4162 65be 01b8 bd3d 4f1f 9f3d 00fb 2e3e
00000070: 3d8a b3bc 9f12 44bc 8fb7 85be 1e34 d83d
00000080: 1ee4 5e3e 9b53 f0bd fc2a 663d fd45 d63b
00000090: b25b c23d ec19 34be aebd 33be a641 f43d
000000a0: 6ba8 cbbd 3d22 7e3d 5705 dabd 9a13 8c3d
000000b0: c2a3 99bd 7e1a c6bc bfb8 45be 6cd7 a13e
000000c0: acf4 993b db92 11bd b232 6c3d 06e8 983c
000000d0: d1e8 8b3e a0d6 51bd 7e36 883e 811e 08be
000000e0: abd6 64be 5db9 173e 7e98 5b3e 9c43 ae3d
000000f0: 4227 bbbb 7159 31be 3d5c ff3c 3234 a33b
00000100: b102 87be f99f 55be b8ad 1d3e ce26 183d
00000110: 2485 93bd 4d63 873e 91d7 8ebd 790c d3bd
00000120: 7de6 23be fcdd 47be 18d5 afbe 7426 d4bb
00000130: 1eff 10be 57a9 813d 63aa c1bd 12f2 4d3d
00000140: ebf8 c5bd d9e6 1abe 66b0 f33d 4dbf db3d
00000150: 7de5 433e 68d5 40be 3d05 6bbe 0d5e 27bb
00000160: f337 9dbe 2075 6cbd b567 bb3d 183c 22be
00000170: 0ac3 be3d 2d04 3ebe 4ce1 01be 958f 2dbe
00000180: 7172 113d 1d4e 963d f1bd c3bd afaf e73a
00000190: 37ca be3d c710 ddbc 741b 0d3e 78fa 443d
000001a0: 5e87 7bbd 349c 80be f04c 42be ae30 90be
000001b0: b612 bfbd be79 993e 39ea f9bd 3463 473e
000001c0: 8a66 efbd 029c bebd 9788 95bd 8fbe 47be
000001d0: a7c5 b73d 43c6 943e 526c cf3e 258f b4bd
000001e0: 1967 4b3e 7898 df3d 638f 603e 8742 ec3d
000001f0: 4f67 24be 244a 673d 2ede 0bbd 9fb5 4f3d

hidden_3.0.weight f4 [64, 128]
-0.08467834 -0.005730022 0.078117065 -0.019398382 0.009390391 0.022159748 0.06380559 -0.05992321
-0.029924968 -0.05442158 -0.05243875 0.056839522 -0.059338633 0.029522656 0.041874032 -0.036863647
-0.03971152 -0.032971017 -0.01281399 0.008548497 -0.08111264 0.08147402 0.05285044 0.07328337
-0.035257883 -0.0806997 0.05158372 -0.041169684 0.024091411 0.021411432 0.027349174 -0.029784134
0.07172895 0.05415071 0.024124434 -0.0709927 -0.03968133 0.044187017 -0.057762466 -0.0076206033
-0.04899683 0.03822406 0.032329455 0.0048309243 -0.035366252 -0.031185517 0.047028843 -0.07981338
0.036886677 0.0823203 0.06345373 0.024633547 -0.000986447 -0.015005121 0.04474341 0.020648342
0.037504468 -0.0026331875 0.065468855 -0.08252907 0.0072618597 -0.0031462726 -0.008020998 -0.062008623
0.024482409 -0.07217583 -0.005812177 0.016092774 -0.056681767 0.07397996 -0.05419799 -0.07271198
0.06991285 -0.07907727 0.08355553 -0.00088819215 0.033132985 0.040311374 0.07528324 0.030740036
-0.0036127435 0.034747146 -0.062476136 0.0005738504 0.017817022 0.006737711 -0.026621541 -0.019740561
0.033140846 -0.07736027 0.009736923 -0.03814338 0.07057088 0.021838568 -0.018373255 0.010695237
0.015944006 -0.038446132 -0.047047935 -0.017238798 0.063578635 0.0118516935 0.0339215 -0.08547143
-0.08601334 0.032465138 0.011345668 0.05646684 -0.028408166 -0.07268183 0.03961398 0.082701154
-0.05533254 -0.029212117 -0.07518621 -0.0398007 0.0161037 0.07629175 -0.066554785 -0.055815924
0.07355115 0.060023475 0.019575061 0.08131323 0.020689761 -0.04680695 0.08383865 0.004852588
-0.0062963385 0.0038543714 -0.08362307 0.011431511 -0.013485158 0.088129625 0.05818326 0.06388288
-0.013605298 -0.024985727 -0.05140928 0.058936246 0.08355062 0.00036618236 -0.030292656 -0.050005622
0.051199634 -0.07611083 -0.059063453 0.07309057 -0.038932182 -0.05327389 -0.05416427 -0.0369595
-0.031070435 0.05205266 -0.010696343 -0.008180608 0.04035491 0.027105555 0.036731854 0.03056972
0.069425434 0.08293564 -0.06806056 0.047266606 -0.028603854 -0.017414719 -0.0283633 -0.033360336
0.033894356 -0.060892798 -0.042763676 0.0140427295 -0.036019392 0.062032215 0.08043967 -0.032549936
0.022161655 -0.013049496 -0.057975087 0.007216752 -0.017811859 0.08580052 0.06644243 -0.036485452
0.047318067 -0.026756072 0.07422633 0.03510394 0.022280572 -0.01689291 -0.0049311286 -0.03860566
0.033316966 -0.027178122 0.06165107 -0.046401594 0.046716724 0.03709142 0.0042322497 -0.01799467
0.062422294 -0.03702765 -0.037018325 0.077975065 -0.023395695 0.00032797625 -0.039104395 -0.04100354
-0.022968326 -0.029265275 0.00045034962 -0.032414615 0.02949094 0.0458483 -0.018241124 0.0753927
0.063983105 0.077063255 0.06895313 -0.070327125 -0.060208574 -0.032213975 0.011333498 -0.033269487
0.08483642 0.07410346 0.037789073 0.007864907 0.026595134 -0.07036203 0.047888577 -0.07768155
-0.083662964 0.0011922605 -0.03119342 -0.07335421 0.022737455 -0.08299918 0.0588929 0.048670873
0.032983523 0.0754161 0.028322872 -0.02243894 0.0018700557 -0.0121716615 0.030072313 -0.038279463
0.03877841 0.05184683 -0.0036658486 -0.013294802 -0.033993676 0.016169174 -0.07529422 -0.055446066
00000000: d66b adbd e9c2 bbbb d7fb 9f3d 5be9 9ebc
00000010: 28da 193c 5c88 b53c 81ac 823d 0a72 75bd
00000020: 3525 f5bc 2ae9 5ebd 04ca 56bd 8fd0 683d
00000030: 110d 73bd 7fd9 f13c 1b84 2b3d 56fe 16bd
00000040: 8ca8 22bd 9e0c 07bd c5f1 51bc ff0e 0c3c
00000050: 621e a6bd dadb a63d b479 583d 9715 963d
00000060: 926a 10bd e245 a5bd 7349 533d 8ba1 28bd
00000070: 5a5b c53c 0767 af3c 600b e03c dbfd f3bc
00000080: a1e6 923d 23cd 5d3d 9ba0 c53c 9f64 91bd
00000090: e488 22bd 72fd 343d 5698 6cbd 41b6 f9bb
000000a0: e6b0 48bd d590 1c3d e46b 043d bb4c 9e3b
000000b0: 34dc 10bd c578 ffbc 51a1 403d 3375 a3bd
000000c0: 7c16 173d 8c97 a83d 07f4 813d 4bcc c93c
000000d0: ab4b 81ba 0ad8 75bc de44 373d b626 a93c
000000e0: 499e 193d 8e91 2cbb 8914 863d 0005 a9bd
000000f0: e5f4 ed3b b231 4ebb 816a 03bc c1fc 7dbd
00000100: 558f c83c ecd0 93bd 1374 bebb fed4 833c
00000110: 242b 68bd ce82 973d b6fe 5dbd 05ea 94bd
00000120: 782e 8f3d 44f3 a1bd 291f ab3d 91d5 68ba
00000130: 74b6 073d 8a1d 253d 192e 9a3d 87d2 fb3c
00000140: c7c3 6cbb 0653 0e3d fae6 7fbd 736e 163a
00000150: 01f5 913c 04c8 dc3b 6b15 dabc f5b6 a1bc
00000160: b2be 073d 106f 9ebd 9d87 1f3c 3c3c 1cbd
00000170: 7787 903d cce6 b23c 8283 96bc 133b 2f3c
00000180: 019d 823c b179 1dbd 56b5 40bd 6138 8dbc
00000190: 8435 823d 9b2d 423c 45f1 0a3d a50b afbd
000001a0: c327 b0bd 2afa 043d 2ee3 393c c649 673d
000001b0: 3eb8 e8bc 36da 94bd 4542 223d 395f a93d
000001c0: 60a4 62bd 404e efbc 3afb 99bd 0f06 23bd
000001d0: e8eb 833c d93e 9c3d e04d 88bd 3d9f 64bd
000001e0: fca1 963d 2ddb 753d e15b a03c 8d87 a63d
000001f0: 937d a93c a5b8 3fbd 99b3 ab3d 7502 9f3b
00000200: 8451 cebb 9f99 7c3b 9242 abbd 3b4b 3b3c
00000210: daf0 5cbc 4e7d b43d 9251 6e3d 07d5 823d
00000220: c1e8 5ebc deae ccbc 8a92 52bd 2267 713d
00000230: 961c ab3d 2afc bf39 4e28 f8bc b2d2 4cbd
00000240: b5b6 513d ffdf 9bbd 85ec 71bd 82b0 953d
00000250: 5a77 1fbd b935 5abd 5bdb 5dbd d862 17bd
00000260: 6d87 febc 2c35 553d b73f 2fbc f507 06bc
00000270: 314b 253d 780c de3c 2474 163d 596d fa3c
00000280: ec2e 8e3d 29da a93d 5663 8bbd a19a 413d
00000290: a152 eabc 50a9 8ebc 275a e8bc d9a4 08bd
000002a0: cfd4 0a3d ba6a 79bd f728 2fbd 7a13 663c
000002b0: 1289 13bd 7e15 7e3d 8ebd a43d 1553 05bd
000002c0: 5c8c b53c 8ecd 55bc 4977 6dbd 817a ec3b
000002d0: 2dea 91bc 2fb8 af3d f812 883d c571 15bd
000002e0: 97d0 413d 8d2f dbbc f903 983d 26c9 0f3d
000002f0: bf85 b63c 0063 8abc 4e95 a1bb f820 1ebd
00000300: 5f77 083d a7a4 debc d585 7c3d 990f 3ebd
00000310: 095a 3f3d 2ced 173d afae 8a3b 8f69 93bc
00000320: 85ae 7f3d 4eaa 17bd 87a0 17bd 64b1 9f3d
00000330: 54a8 bfbc 3af4 ab39 ee2b 20bd 54f3 27bd
00000340: 1228 bcbc bbbd efbc e71c ec39 30c5 04bd
00000350: fc96 f13c 6dcb 3b3d 696e 95bc 7d67 9a3d
00000360: 9309 833d 57d3 9d3d 4c37 8d3d ab07 90bd
00000370: 449d 76bd cdf2 03bd 23b0 393c 9645 08bd
00000380: b8be ad3d 8ec3 973d b7c8 1a3d d0db 003c
00000390: 0ade d93c f819 90bd d026 443d 8117 9fbd
000003a0: 7d57 abbd a045 9c3a 5889 ffbc bb3a 96bd
000003b0: e643 ba3c 79fb a9bd ae39 713d 1c5b 473d
000003c0: bb19 073d c273 9a3d 5e05 e83c ded1 b7bc
000003d0: a81c f53a a66b 47bc 365a f63c edca 1cbd
000003e0: 1cd6 1e3d 575d 543d bc3e 70bb 71d2 59bc
000003f0: f43c 0bbd 3775 843c db33 9abd 6a1b 63bd

hidden_3.0.bias f4 [64]
0.052311383 -0.053732585 -0.036234446 -0.042987384 -0.048283197 -0.08763164 0.020083405 -0.011700945
0.045441773 0.024902917 0.05996936 0.07633323 0.07557673 0.048947886 0.022958811 0.04521788
-0.018400913 -0.007186564 -0.05347376 -0.0726016 -0.03615741 -0.019959124 0.005632484 -0.07897419
0.07218307 0.061381593 0.04950144 -0.009922327 0.061108094 0.047012944 -0.00958923 -0.0048191445
0.003192434 -0.007485459 -0.029271629 0.048035532 0.020813325 0.037988786 -0.0029648622 -0.08235491
0.021073729 -0.0021559903 0.008458978 -0.015392387 -0.0035700172 0.04541814 -0.059947327 0.05768542
0.055833027 0.034729645 0.00082108384 0.04359512 0.05521862 -0.08272799 -0.06912796 -0.021133209
-0.047468614 -0.002958245 -0.04200888 -0.027961832 0.057596754 0.0062372065 -0.046707347 -0.02988046
00000000: 7644 563d b316 5cbd 926a 14bd 8a13 30bd
00000010: 9ac4 45bd 3878 b3bd f485 a43c 52b5 3fbc
00000020: 2721 3a3d 3401 cc3c 6ea2 753d 9954 9c3d
00000030: f9c7 9a3d 947d 483d 1e14 bc3c 6236 393d
00000040: 83bd 96bc 457d ebbb 4d07 5bbd 26b0 94bd
00000050: cb19 14bd 5181 a3bc b390 b83b 38bd a1bd
00000060: b8d4 933d 446b 7b3d 06c2 4a3d 4191 22bc
00000070: 7b4c 7a3d a590 403d 251c 1dbc eae9 9dbb
00000080: 2838 513b 9548 f5bb 0ecb efbc e8c0 443d
00000090: b580 aa3c 219a 1b3d 224e 42bb b1a9 a8bd
000000a0: d0a2 ac3c 844b 0dbb 8697 0a3c 5a30 7cbc
000000b0: f3f6 69bb 5f08 3a3d 548b 75bd 8c47 6c3d
000000c0: 2cb1 643d ac40 0e3d 013e 573a cc90 323d
000000d0: eb2c 623d 4b6d a9bd f692 8dbd 8d1f adbc
000000e0: 736e 42bd 1edf 41bb 8111 2cbd 3610 e5bc
000000f0: 93ea 6b3d 7b61 cc3b 3450 3fbd dec7 f4bc

hidden_4.0.weight f4 [32, 64]
0.07158531 -0.0881889 -0.044414118 -0.011416331 -0.008329958 -0.051834777 0.10626277 0.030874282
0.017876029 0.041676298 -0.07347922 0.12097211 0.091780454 0.053958237 -0.10063177 0.0033461899
0.024085477 -0.07614215 0.12344228 0.036990583 -0.048884466 0.044739798 0.11509806 0.07989454
0.07308118 0.018517315 0.034887478 -0.02272603 -0.10100536 0.022654667 0.11371598 0.073039845
0.009411201 0.037981823 -0.0111655295 -0.09189828 0.09350009 0.01310347 0.029847324 -0.06812973
-0.11694594 -0.01734525 -0.047348127 0.10524492 -0.016608179 -0.05448149 -0.12486993 -0.08546515
-0.06200996 0.046331644 0.037872046 -0.040176973 -0.12419169 -0.010017827 0.0015530884 -0.06008412
-0.013275906 -0.009535283 -0.09445724 -0.116262436 0.017373055 -0.021654487 -0.07176623 0.11734626
-0.11664075 0.06293595 -0.046372294 -0.0078223795 0.08532941 0.069930285 0.1182071 0.014054999
-0.07867366 -0.116675526 -0.07788332 -0.11067498 -0.031492084 -0.026578143 0.118699506 -0.029838547
0.079303265 0.022388458 0.07031061 0.08089697 -0.041149423 -0.10915838 -0.048231885 0.010886088
0.11848949 -0.06903832 0.07041605 -0.09938224 0.03171681 0.06545706 -0.11408694 0.0897114
-0.058532283 -0.009862661 -0.1122825 0.028265893 0.01047039 -0.115634635 0.09430346 0.08950803
-0.057568476 -0.11055185 0.004929453 0.058484122 0.08314036 -0.07191242 0.04647863 0.04740028
0.06673643 -0.115553066 0.09682301 0.12314284 0.017064512 -0.10969016 0.100412905 -0.110158294
0.022224978 -0.07056196 -0.01201947 -0.106176615 -0.017815426 -0.079404294 -0.052058443 0.08496733
-0.11694662 -0.0949433 -0.12387258 0.019221902 0.044757426 0.010033742 -0.11275932 -0.09592354
0.07755512 -0.052868113 0.03293261 0.124827564 -0.095949635 0.026202708 0.11791693 -0.11543143
0.08160794 0.08543359 -0.109870434 0.11266665 0.055727884 -0.03832127 0.057058692 0.010948345
0.043472007 -0.07293783 -0.07985154 -0.120700896 -0.057545006 0.06495018 -0.12144813 -0.06470811
-0.101850286 -0.09697349 -0.08790323 -0.035031423 0.044179022 0.12182443 -0.0566151 -0.079956025
-0.0017533004 0.010858938 -0.058708355 -0.11666384 -0.036098257 -0.05285819 0.013602033 -0.065921694
0.007663667 0.0025511384 -0.06265083 0.06674345 -0.09452349 0.10800813 -0.04605958 0.06652138
0.033129588 -0.028634489 0.119436175 0.007918447 -0.11669733 0.10926406 0.009616762 0.064230844
0.0069894195 0.034664035 -0.017190889 -0.072837606 0.093893036 -0.05784504 0.028764367 0.04787329
0.120788574 -0.042539686 0.09911691 -0.12078433 -0.060695216 -0.04113449 -0.016293123 -0.012548551
-0.020007968 -0.0077303946 0.028487444 -0.06399636 -0.115167126 0.071729735 0.013069689 0.040384322
0.08737479 0.047785267 -0.08303249 0.09756103 -0.07311323 -0.053162187 -0.045405492 -0.04493743
-0.08168802 -0.016041264 0.120498106 0.07114336 -0.05672601 -0.09415087 -0.0010545552 -0.072801486
0.08441815 -0.062241122 -0.0711516 -0.081559494 0.09810145 0.045032844 -0.015152916 -0.11250509
0.058923915 -0.040755942 -0.1061106 -0.11405176 0.09932786 0.020320103 0.022586703 -0.05915375
0.030256435 0.016002536 0.0278866 -0.041038767 0.09752181 0.09371236 -0.030480742 -0.12143564
00000000: 529b 923d 629c b4bd 94eb 35bd 900b 3bbc
00000010: 607a 08bc b450 54bd 4ca0 d93d 10ec fc3c
00000020: c070 923c c4b4 2a3d 467c 96bd 3ac0 f73d
00000030: 64f7 bb3d 5003 5d3d 0818 cebd c04b 5b3b
00000040: e84e c53c 6af0 9bbd 4ecf fc3d 7083 173d
00000050: 143b 48bd 1441 373d 88b8 eb3d c09f a33d
00000060: 96ab 953d a0b1 973c 2ce6 0e3d f02b babc
00000070: e6db cebd 4896 b93c ece3 e83d ea95 953d
00000080: 7031 1a3c d492 1b3d a0ef 36bc 2a35 bcbd
00000090: fa7c bf3d f0af 563c 6082 f43c 9a87 8bbd
000000a0: 5a81 efbd a017 8ebc 1cf0 41bd a68a d73d
000000b0: e00d 88bc fc27 5fbd cebb ffbd 5a08 afbd
000000c0: 28fe 7dbd 40c6 3d3d b81f 1b3d 9c90 24bd
000000d0: 3658 febd d021 24bc 0091 cb3a c41a 76bd
000000e0: 3083 59bc e039 1cbc cc72 c1bd 001b eebd
000000f0: f051 8e3c c064 b1bc 2cfa 92bd 3c53 f03d
00000100: 58e1 eebd 90e4 803d e0f0 3dbd 7029 00bc
00000110: 30c1 ae3d 9c37 8f3d 9016 f23d f046 663c
00000120: a81f a1bd 94f3 eebd 4a81 9fbd 90a9 e2bd
00000130: d8fd 00bd 68ba d9bc ba18 f33d f86f f4bc
00000140: c069 a23d 0068 b73c 02ff 8f3d 50ad a53d
00000150: 4c8c 28bd 6e8e dfbd cc8e 45bd 905b 323c
00000160: 9eaa f23d f663 8dbd 4a36 903d ea88 cbbd
00000170: 7ce9 013d 5a0e 863d 6aa6 e9bd 9cba b73d
00000180: 8cbf 6fbd 0097 21bc 5ef4 e5bd e08d e73c
00000190: 008c 2b3c dad1 ecbd 2c22 c13d fc4f b73d
000001a0: eccc 6bbd 0269 e2bd 4087 a13b 0c8d 6f3d
000001b0: 7e45 aa3d d246 93bd 6060 3e3d cc26 423d
000001c0: 1cad 883d 16a7 ecbd 244b c63d 5032 fc3d
000001d0: e0ca 8b3c 3ca5 e0bd 48a5 cd3d ac9a e1bd
000001e0: 2811 b63c ca82 90bd 50ed 44bc 2073 d9bd
000001f0: a8f1 91bc b89e a2bd 3c3b 55bd 5a03 ae3d
00000200: b681 efbd a271 c2bd e8b0 fdbd 4077 9d3c
00000210: 9053 373d 9064 243c 5cee e6bd 9073 c4bd
00000220: 38d5 9e3d 3c8c 58bd 58e4 063d 98a5 ff3d
00000230: 3e81 c4bd 10a7 d63c 6e7e f13d 5067 ecbd
00000240: 1022 a73d cef7 ae3d c003 e1bd c6bd e63d
00000250: ec42 643d c4f6 1cbd 60b6 693d b060 333c
00000260: b40f 323d 6e60 95bd 3489 a3bd 0832 f7bd
00000270: 50b4 6bbd 9a04 853d ccb9 f8bd b085 84bd
00000280: e296 d0bd 0a9a c6bd 9c06 b4bd 1c7d 0fbd
00000290: 10f5 343d 167f f93d 3ce5 67bd fcbf a3bd
000002a0: 00cf e5ba b0e9 313c 2c78 70bd 74ed eebd
000002b0: c4db 13bd d481 58bd 10db 5e3c f401 87bd
000002c0: 801f fb3b 0031 273b 144f 80bd cab0 883d
000002d0: 8895 c1bd 5e33 dd3d f8a8 3cbd 5c3c 883d
000002e0: e4b2 073d e092 eabc f49a f43d 60bc 013c
000002f0: 02ff eebd d6c5 df3d a08f 1d3c 768b 833d
00000300: 8007 e53b e0fb 0d3d e8d3 8cbc e22b 95bd
00000310: fe4a c03d ecee 6cbd 40a3 eb3c c816 443d
00000320: 0060 f73d 183e 2ebd cefd ca3d c65d f7bd
00000330: 8c9b 78bd a47c 28bd 2879 85bc 7098 4dbc
00000340: c0e7 a3bc 404f fdbb 805e e93c 8610 83bd
00000350: bedc ebbd 0ae7 923d 4022 563c 086a 253d
00000360: 8ef1 b23d 7cba 433d f00c aabd 14ce c73d
00000370: 64bc 95bd 98c0 59bd 1cfb 39bd 5010 38bd
00000380: 0c4c a7bd f868 83bc b6c7 f63d 9cb3 913d
00000390: 8859 68bd 2cd2 c0bd 0039 8aba f218 95bd
000003a0: 6ce3 ac3d 8cf0 7ebd eeb7 91bd aa08 a7bd
000003b0: 6ae9 c83d 5c74 383d f043 78bc 1269 e6bd
000003c0: 345a 713d b4ef 26bd 8450 d9bd f893 e9bd
000003d0: 686c cb3d 5876 a63c c007 b93c 344b 72bd
000003e0: 58dc f73c c017 833c 7072 e43c 4418 28bd
000003f0: 84b9 c73d 44ec bf3d c0b2 f9bc 40b3 f8bd

hidden_4.0.bias f4 [32]
-0.102973625 0.12420997 -0.05191715 0.008380324 0.073557675 -0.005268842 0.023041502 0.00927639
-0.016795874 -0.109337315 0.05684389 0.09200451 -0.01115115 0.0941477 0.051507756 -0.082074404
-0.08876982 0.046662748 -0.10118456 -0.07039173 -0.06565006 -0.08456668 0.083272204 -0.070774645
-0.09122485 -0.09126592 0.07102735 0.07128678 -0.039603546 -0.01916486 0.09280017 0.04454781
00000000: d6e3 d2bd cc61 fe3d 14a7 54bd a04d 093c
00000010: 68a5 963d 40a6 acbb 88c1 bc3c 00fc 173c
00000020: 8097 89bc 3eec dfbd 24d5 683d dc6c bc3d
00000030: 50b3 36bc 82d0 c03d ccf9 523d a016 a8bd
00000040: f4cc b5bd 7021 3f3d da39 cfbd 8a29 90bd
00000050: 8a73 86bd 4c31 adbd 9e8a aa3d 4cf2 90bd
00000060: 18d4 babd a0e9 babd ca76 913d cefe 913d
00000070: 5437 22bd a0ff 9cbc 040e be3d c477 363d

hidden_5.0.weight f4 [16, 32]
-0.11567948 0.07260254 -0.06447797 0.03490642 -0.13799848 -0.14985624 -0.12906252 0.1492472
-0.1110368 -0.09613553 0.11674392 -0.014309571 -0.11915141 0.032662604 0.008115249 -0.028169563
0.046948977 -0.16661878 0.12105759 -0.095812574 0.0150168585 0.13065125 -0.14896424 -0.124453425
0.097814426 -0.17065457 0.13540646 -0.10210211 -0.14977354 -0.17627074 -0.038419593 0.06380742
-0.08215565 -0.046630092 0.08616293 0.020625424 0.050383586 0.0774717 -0.0016444015 0.021228671
-0.10617937 -0.1665959 -0.072112985 0.06381823 -0.028736606 0.043760333 -0.010580229 -0.06302052
0.16853748 -0.10821869 0.036012102 -0.10779861 0.17611781 0.13561378 0.0077022733 -0.034442488
-0.0842459 0.16333899 -0.068433054 0.14250499 0.13736033 -0.10848373 -0.012625805 -0.17443904
0.09380984 0.15457772 -0.065561086 0.0077330195 0.02274052 0.10333943 -0.08594191 -0.02735638
-0.026356637 -0.16370545 0.062709115 -0.070232034 -0.16308476 0.14742598 0.16824147 0.0012262625
-0.12377105 0.011594113 -0.090019494 0.08625485 0.030785069 0.02450833 0.032493282 -0.13468824
-0.1652664 -0.14852707 0.09115133 -0.16027953 0.16385017 0.00050156855 -0.0758879 0.0717101
0.17647286 -0.016529046 -0.040906698 0.09909815 -0.13361916 0.17179368 -0.022691082 -0.003148812
-0.04002914 0.015216571 0.10032733 0.042146765 0.04383696 -0.088235624 -0.12316485 -0.12458054
0.14317286 -0.1653673 0.13088986 -0.005142611 0.07011861 -0.055455662 0.07180731 -0.018294072
-0.043233015 0.17119868 -0.04463954 0.029516092 -0.0941847 -0.10619659 0.107277274 -0.06918608
-0.16153064 -0.065046646 -0.16603209 -0.005747629 0.04245119 -0.055681653 -0.16449624 0.14504573
-0.047273252 -0.14069022 0.046258505 0.15586326 -0.059676964 0.022288432 -0.035377096 0.051336166
0.012120295 -0.10803177 0.15450288 0.038219605 0.15395753 0.040783357 0.040394403 -0.10491678
-0.10788956 -0.024787277 0.032730903 0.10497524 -0.12915725 -0.075872906 0.06707443 -0.09726936
-0.053524286 0.031152926 -0.06609083 0.02654539 -0.10924092 -0.09847792 -0.10460953 0.13102819
0.109817296 -0.038894016 0.032085046 -0.04788396 -0.04006117 -0.14955196 -0.16472122 -0.17388521
-0.15100095 -0.11702218 -0.008753584 0.04326534 -0.13103181 0.13356608 -0.080426514 -0.010341045
-0.030789431 -0.03237034 0.12946315 0.17264172 -0.038844813 0.038610265 -0.06594852 -0.067812845
-0.13865308 0.05679003 0.07907423 0.12118858 0.08262639 -0.06693623 0.050556768 0.0696064
0.07859654 -0.022147726 -0.13592671 0.16719927 0.056060977 0.026107423 0.081219144 0.1391755
0.09156711 -0.08697558 -0.018272534 -0.11188155 -0.07371812 0.071919 0.163618 -0.06253901
-0.0030513685 0.06591573 0.11366136 -0.025710862 0.029722778 0.14611933 0.12423028 0.030404251
-0.024730949 -0.16768092 -0.12741567 0.00019476058 0.07655927 0.15497017 -0.13518983 0.15080889
0.17673162 0.026732797 0.118185304 0.11269279 -0.057054337 0.10845591 0.10437003 0.011728498
-0.065496415 -0.092836335 0.021556111 -0.040175702 -0.049727358 0.078549184 0.070319906 -0.13872102
0.00420752 0.1342732 0.12932879 0.0118546225 -0.14363757 0.030384568 0.0124794915 0.10823182
00000000: 5de9 ecbd a4b0 943d 070d 84bd 09fa 0e3d
00000010: 794f 0dbe ea73 19be f728 04be 42d4 183e
00000020: 4367 e3bd b4e2 c4bd 7017 ef3d b172 6abc
00000030: a805 f4bd 39c9 053d d2f5 043c dbc3 e6bc
00000040: 924d 403d 1d9e 2abe 0bed f73d 6239 c4bd
00000050: 4509 763c 71c9 053e 158a 18be 70e1 febd
00000060: ee52 c83d 12c0 2ebe fea7 0a3e e91a d1bd
00000070: 3c5e 19be 5180 34be dd5d 1dbd 77ad 823d
00000080: 3941 a8bd 32ff 3ebd 3176 b03d a6f6 a83c
00000090: 055f 4e3d 7ca9 9e3d f588 d7ba c0e7 ad3c
000000a0: 9274 d9bd 1e98 2abe f9af 93bd 22b3 823d
000000b0: 0869 ebbc 093e 333d b258 2dbc e710 81bd
000000c0: 1795 2c3e c3a1 ddbd 6d81 133d 85c5 dcbd
000000d0: 3a58 343e 57de 0a3e 5a63 fc3b 9113 0dbd
000000e0: 1d89 acbd 5642 273e a126 8cbd d4ec 113e
000000f0: 30a8 0c3e b82c debd 77dc 4ebc 26a0 32be
00000100: 601f c03d 9f49 1e3e e444 86bd 4565 fd3b
00000110: 544a ba3c a0a3 d33d 5002 b0bd 7d1a e0bc
00000120: e0e9 d7bc 67a2 27be a36d 803d d0d5 8fbd
00000130: b1ff 26be d6f6 163e 7e47 2c3e 8bba a03a
00000140: ad7b fdbd 3cf5 3d3c 245c b8bd 62a6 b03d
00000150: f830 fc3c b1c5 c83c ad17 053d b7eb 09be
00000160: 983b 29be 7b17 18be 8cad ba3d 5120 24be
00000170: 57c8 273e b27b 033a 1e6b 9bbd bfdc 923d
00000180: 4db5 343e ec67 87bc c88d 27bd f9f3 ca3d
00000190: 76d3 08be afea 2f3e a6e2 b9bc 4d5c 4ebb
000001a0: 98f5 23bd ed4e 793c 6a78 cd3d 16a2 2c3d
000001b0: 628e 333d e1b4 b4bd da3d fcbd 1524 ffbd
000001c0: e89b 123e 0c56 29be fe07 063e 5983 a8bb
000001d0: 599a 8f3d 7a25 63bd b60f 933d 73dd 95bc
000001e0: 1a15 31bd b54e 2f3e f3d7 36bd bbcb f13c
000001f0: e8e3 c0bd 997d d9bd 30b4 db3d 6eb1 8dbd
00000200: 4a68 25be 2d37 85bd 5104 2abe 9b56 bcbb
00000210: 4de1 2d3d 7212 64bd b471 28be de86 143e
00000220: 99a1 41bd 1911 10be 8f79 3d3d 9e9a 1f3e
00000230: d56f 74bd 3b96 b63c 93e7 10bd df45 523d
00000240: 3494 463c c33f ddbd 0136 1e3e 298c 1c3d
00000250: 0ba7 1d3e 730c 273d 9a74 253d 9cde d6bd
00000260: 34f5 dcbd b00e cbbc d710 063d 42fd d63d
00000270: cc41 04be 4163 9bbd 525e 893d 2935 c7bd
00000280: 483c 5bbd 6c34 ff3c a15a 87bd b875 d93c
00000290: b4b9 dfbd cbae c9bd 853d d6bd 412c 063e
000002a0: e4e7 e03d 554f 1fbd 9c6b 033d f921 44bd
000002b0: 2e17 24bd 2624 19be aeac 28be f70e 32be
000002c0: fe9f 1abe 53a9 efbd 316b 0fbc ff36 313d
000002d0: 342d 06be 8cc5 083e a8b6 a4bd 7d6d 29bc
000002e0: 1e3a fcbc c396 04bd fd91 043e fec8 303e
000002f0: bd1b 1fbd cc25 1e3d 0510 87bd 76e1 8abd
00000300: 13fb 0dbe aa9c 683d abf1 a13d b831 f83d
00000310: 0638 a93d dd15 89bd 9d14 4f3d cd8d 8e3d
00000320: 39f7 a03d 266f b5bc 5f30 0bbe 4936 2b3e
00000330: 32a0 653d 3cdf d53c 3956 a63d 0684 0e3e
00000340: 8987 bb3d 4120 b2bd 48b0 95bc 2722 e5bd
00000350: 87f9 96bd 454a 933d 7a8b 273e 7414 80bd
00000360: 78f9 47bb d4fe 863d 4ac7 e83d 969f d2bc
00000370: 2f7d f33c 4ea0 153e 726c fe3d 5612 f93c
00000380: 8f98 cabc 8cb4 2bbe 4179 02be a538 4c39
00000390: 1bcb 9c3d 80b0 1e3e 346f 0abe a56d 1a3e
000003a0: 22f9 343e bdfe da3c 230b f23d 7acb e63d
000003b0: cfb1 69bd 221e de3d f4bf d53d e328 403c
000003c0: fc22 86bd fa20 bebd 7196 b03c 478f 24bd
000003d0: eaae 4bbd 65de a03d e203 903d e20c 0ebe
000003e0: 3cdf 893b ea7e 093e c46e 043e e439 423c
000003f0: ba15 13be 0fe9 f83c c876 4c3c a5a8 dd3d

hidden_5.0.bias f4 [16]
-0.060783572 -0.16927822 0.060406443 -0.16685271 -0.021635158 0.014044953 0.027367381 -0.107548684
-0.02815755 -0.01825953 -0.047972407 -0.17033204 0.09170063 -0.040908575 -0.04931685 -0.14279214
00000000: 32f8 78bd 4557 2dbe bf6c 773d 70db 2abe
00000010: 373c b1bc cd1c 663c 8f31 e03c 7c42 dcbd
00000020: aaaa e6bc 0395 95bc b77e 44bd 866b 2ebe
00000030: 8acd bb3d c08f 27bd 7700 4abd 1a38 12be

out.0.weight f4 [256, 128]
-0.09439329 0.12915511 -0.022296675 -0.122585885 0.1585298 -0.0076402975 -0.009720411 -0.05138966
0.04121661 -0.014912528 0.03420811 0.24217385 0.011945546 -0.034083 0.05198185 -0.055607032
0.07980766 -0.0117171435 0.06194374 -0.0036219931 0.11840392 -0.17513502 -0.16577491 0.090480074
-0.010761145 0.11728227 -0.101696566 0.007935427 -0.26971522 0.14973985 -0.021486841 -0.01230162
0.13912228 0.11887324 0.19424736 0.12165663 -0.0009211839 -0.0921459 0.03339185 0.06809024
-0.03207648 -0.055804048 0.1147216 -0.14483841 -0.2563243 -0.17534398 0.080666035 -0.019646762
-0.09641469 0.123159625 0.04179471 -0.040700525 -0.008613813 0.0051231417 -0.060608394 0.12748514
-0.059826996 -0.09559288 -0.034236766 0.010617488 0.085472964 0.021011114 -0.23534556 0.08563468
0.103534706 -0.02692152 -0.19950452 0.029932423 0.11672288 -0.16112123 -0.07294181 -0.13679326
-0.04302812 0.13475992 0.13865452 -0.20632584 0.023973592 0.09951337 -0.011721606 -0.11704065
-0.07730487 -0.034893483 -0.11570513 -0.07210359 -0.08245981 0.09345755 0.091426685 -0.029706936
0.15296294 -0.17978236 -0.061995834 -0.0817771 0.096018665 -0.17004278 0.026216751 0.015163349
-0.04305269 0.049270805 -0.07988354 0.16056198 -0.014565434 -0.085413516 -0.051113058 0.020840181
-0.12959796 0.13981631 -0.0155923925 -0.04769635 0.041342534 -0.061948087 0.09232335 -0.1072959
0.16675189 0.014068243 0.00034601017 0.10093022 -0.01736998 0.09983479 -0.13194543 -0.04270745
-0.15437722 -0.0050481153 -0.1375608 -0.008917265 -0.07462483 -0.09928812 -0.27767318 -0.06613096
-0.060462926 -0.118479535 -0.07502838 0.026560217 0.057979863 -0.111117214 -0.1541543 -0.11633306
-0.11231047 -0.055333354 -0.0053921156 0.045592774 -0.05421314 -0.20539078 0.025774766 0.04186139
0.0025697737 -0.18758056 0.26165205 0.04839086 0.14638323 0.016624106 0.039794266 0.031440325
-0.010116329 -0.10334661 0.066411406 0.25783223 0.080949135 -0.071767 -0.2109883 0.020309774
-0.07114959 -0.06174603 0.073007345 -0.19060488 -0.17600083 0.1590645 -0.1252645 0.035970088
-0.0026181715 0.030200105 -0.05893146 -0.060798746 -0.091186225 -0.08642565 0.09599127 0.10011963
0.097752035 -0.098744854 -0.09586412 -0.28025597 -0.10550658 -0.04665603 -0.022976125 -0.064007945
-0.1656438 0.2340557 -0.23326671 -0.15789424 -0.18971756 -0.17969832 -0.018831225 -0.16752987
-0.053661987 -0.049653396 0.105199054 0.025915146 -0.01515059 0.03956499 -0.11158168 -0.14408292
0.15309216 0.0014219192 -0.08835838 0.029124126 -0.007623058 0.055212136 -0.12772092 -0.068702966
-0.14344637 -0.09965623 -0.08786015 -0.14973345 -0.21191958 -0.08773121 0.038640387 -0.06051239
0.020831728 -0.15548487 -0.034283508 -0.15891598 -0.19047794 -0.030056383 0.12473291 0.10472593
0.032562364 -0.18983237 -0.041974925 0.018216442 -0.2335725 -0.0045666182 0.09500713 -0.06921907
-0.39453816 0.30442557 -0.2232142 0.015593623 -0.057161573 0.14589757 -0.09608578 -0.037759542
-0.017753411 -0.07982364 -0.060702287 -0.24843995 -0.053107154 0.04148222 0.08393655 -0.100522675
-0.06470886 -0.006139653 0.12599823 -0.07858337 -0.11583173 -0.012363446 -0.15045199 0.07645019
00000000: 4551 c1bd 3d41 043e 84a7 b6bc 4f0e fbbd
00000010: a355 223e 765b fabb 5c42 1fbc f77d 52bd
00000020: c0d2 283d ad53 74bc ce1d 0c3d 6cfc 773e
00000030: 40b7 433c 9e9a 0bbd ecea 543d 33c4 63bd
00000040: 3372 a33d 43f9 3fbc b8b8 7d3d f65e 6dbb
00000050: c17d f23d 9856 33be e6c0 29be 9e4d b93d
00000060: 834f 30bc b031 f03d 4a46 d0bd 9803 023c
00000070: 1d18 8abe 6755 193e 2c05 b0bc bc8c 49bc
00000080: 1276 0e3e d073 f33d c8e8 463e 1c27 f93d
00000090: 9b7b 71ba fdb6 bcbd e4c5 083d e572 8b3d
000000a0: a162 03bd c992 64bd 29f3 ea3d 8550 14be
000000b0: f03c 83be 5f8d 33be 3c34 a53d 3ff2 a0bc
000000c0: 1175 c5bd 1d3b fc3d ee30 2b3d 98b5 26bd
000000d0: f320 0dbc 07e0 a73b 8240 78bd 778b 023e
000000e0: 270d 75bd 33c6 c3bd da3b 0cbd f9f4 2d3c
000000f0: 730c af3d 801f ac3c 6dfe 70be 3c61 af3d
00000100: 010a d43d 858a dcbc ea4a 4cbe d734 f53c
00000110: 680c ef3d f7fc 24be 8462 95bd 8813 0cbe
00000120: 413e 30bd 81fe 093e 73fb 0d3e 1547 53be
00000130: 4464 c43c aacd cb3d fb0b 40bc 02b3 efbd
00000140: 0452 9ebd 78ec 0ebd d0f6 ecbd 0cab 93bd
00000150: b0e0 a8bd ac66 bf3d ea3d bb3d f65b f3bc
00000160: 51a2 1c3e de18 38be 58ef 7dbd c17a a7bd
00000170: 6fa5 c43d b21f 2ebe 83c4 d63c b26f 783c
00000180: 0458 30bd 2fd0 493d fb99 a3bd 5c6a 243e
00000190: dca3 6ebc 48ed aebd ed5b 51bd 07b9 aa3c
000001a0: 54b5 04be 022c 0f3e 3c77 7fbc 3f5d 43bd
000001b0: ca56 293d 47bd 7dbd 0614 bd3d f4bd dbbd
000001c0: 02c1 2a3e 7d7e 663c b368 b539 81b4 ce3d
000001d0: 7d4b 8ebc 2f76 cc3d b41c 07be 02ee 2ebd
000001e0: 1015 1ebe a96a a5bb bddc 0cbe b819 12bc
000001f0: e7d4 98bd 9257 cbbd 2e2b 8ebe ab6f 87bd
00000200: f9a7 77bd 66a5 f2bd 7ba8 99bd d094 d93c
00000210: 4b7c 6d3d 6c91 e3bd a0da 1dbe 0740 eebd
00000220: 0803 e6bd 3aa5 62bd 58b0 b0bb 7dbf 3a3d
00000230: 990e 5ebd f651 52be 9a25 d33c d976 2b3d
00000240: a669 283b 1e15 40be 42f7 853e 7f35 463d
00000250: 7ce5 153e 472f 883c 50ff 223d 92c7 003d
00000260: f6be 25bc 63a7 d3bd b402 883d 9602 843e
00000270: a9c8 a53d 94fa 92bd 510d 58be af60 a63c
00000280: e0b6 91bd 68e9 7cbd e084 953d ed2d 43be
00000290: 9039 34be cee1 223e 5645 00be 5f55 133d
000002a0: a195 2bbb 3666 f73c 1d62 71bd 1b08 79bd
000002b0: d8bf babd eeff b0bd 1297 c43d 850b cd3d
000002c0: 3832 c83d be3a cabd 6854 c4bd b67d 8fbe
000002d0: d513 d8bd 651a 3fbd 6d38 bcbc 9916 83bd
000002e0: 879e 29be 4cac 6f3e 78dd 6ebe 07af 21be
000002f0: 5245 42be d602 38be f143 9abc f38c 2bbe
00000300: accc 5bbd 5c61 4bbd 9a72 d73d 004c d43c
00000310: 2e3a 78bc e60e 223d f084 e4bd 798a 13be
00000320: 31c4 1c3e b15f ba3a 3df5 b4bd b895 ee3c
00000330: d8ca f9bb 1f26 623d 46c9 02be 24b4 8cbd
00000340: 9be3 12be 9118 ccbd 06f0 b3bd ba53 19be
00000350: 7201 59be 6cac b3bd 6245 1e3d d7db 77bd
00000360: 4da7 aa3c 6d37 1fbe dd6c 0cbd dfba 22be
00000370: a60c 43be ce38 f6bc f873 ff3d 8c7a d63d
00000380: 1d60 053d 6b63 42be e6ed 2bbd a63a 953c
00000390: a12d 6fbe 92a3 95bb 1993 c23d bac2 8dbd
000003a0: e800 cabe abdd 9b3e 4392 64be 657c 7f3c
000003b0: 4122 6abd 2c66 153e 9fc8 c4bd c0a9 1abd
000003c0: 9a6f 91bc 947a a3bd f6a2 78bd 0b67 7ebe
000003d0: e386 59bd 43e9 293d ede6 ab3d d5de cdbd
000003e0: 1486 84bd 242f c9bb ae05 013e 51f0 a0bd
000003f0: 3039 edbd 0d90 4abc 1610 1abe eb91 9c3d
